############################################################
Tests with Model 1
Training summary for model 1 using the old training dataset
Model - 
Layer (type)                 Output Shape              Param #   
=================================================================
flatten (Flatten)            (None, 1024)              0         
dense (Dense)                (None, 512)               524800    
activation (Activation)      (None, 512)               0         
dropout (Dropout)            (None, 512)               0         
dense_1 (Dense)              (None, 512)               262656    
activation_1 (Activation)    (None, 512)               0         
dropout_1 (Dropout)          (None, 512)               0         
dense_2 (Dense)              (None, 256)               131328    
activation_2 (Activation)    (None, 256)               0         
dropout_2 (Dropout)          (None, 256)               0         
dense_3 (Dense)              (None, 2)                 514       
activation_3 (Activation)    (None, 2)                 0         
=================================================================
Total params: 919,298
Trainable params: 919,298
Non-trainable params: 0
Dropout value is 0.5

Model in code - 
=================================================================
model = keras.Sequential()
model.add(layers.Input(shape=(row,col,channel)))
model.add(layers.Flatten())
model.add(layers.Dense(512))
model.add(layers.Activation('relu'))
…
3. Train above for 100 epochs at learning rate of 0.0000001. Best model is model_01_test_intermediate_086_intermediate_091_intermediate_001_accuracy_trainAcc_99.45_testAcc_99.32.h5

It seems the model has learnt all it could. The best possible accuracy is 99.47%.

Training loss and accuracy - [0.021105374043319327, 0.99395907]
Test loss and accuracy - [0.01708392968856284, 0.99651057]
############################################################


############################################################
Tests with Model 2
Training summary for model 2 using the old training dataset
Model - 
Layer (type)                 Output Shape              Param #
=================================================================
conv2d_2 (Conv2D)            (None, 32, 32, 32)        832
activation_5 (Activation)    (None, 32, 32, 32)        0
conv2d_3 (Conv2D)            (None, 28, 28, 32)        25632
activation_6 (Activation)    (None, 28, 28, 32)        0
max_pooling2d_1 (MaxPooling2 (None, 14, 14, 32)        0
dropout_3 (Dropout)          (None, 14, 14, 32)        0
flatten_1 (Flatten)          (None, 6272)              0
dense_3 (Dense)              (None, 256)               1605888
activation_7 (Activation)    (None, 256)               0
dropout_4 (Dropout)          (None, 256)               0
dense_4 (Dense)              (None, 128)               32896
activation_8 (Activation)    (None, 128)               0
dropout_5 (Dropout)          (None, 128)               0
dense_5 (Dense)              (None, 2)                 258
activation_9 (Activation)    (None, 2)                 0
=================================================================
Total params: 1,665,506
Trainable params: 1,665,506
Non-trainable params: 0
Dropout value is 0.5

Model in code - 
=================================================================
model = keras.Sequential()
model.add(layers.Input(shape=(row,col,channel)))
model.add(layers.Conv2D(32,kernel_size=(5,5),padding='same'))
model.add(layers.Activation('relu'))
…
It seems the model is overfitting as the difference in accuracy between training and test datasets is more. The best possible accuracy is 99.83%.

Training loss and accuracy - [0.004022566618132077, 0.998551]
Test loss and accuracy - [0.0038121855892980223, 0.99853075]
############################################################


############################################################
Tests with VGG Model
Training summary for VGG model using the old training dataset
Model - 
Layer (type)                 Output Shape              Param #
=================================================================
input_1 (InputLayer)         [(None, 32, 32, 3)]       0
block1_conv1 (Conv2D)        (None, 32, 32, 64)        1792
block1_conv2 (Conv2D)        (None, 32, 32, 64)        36928
block1_pool (MaxPooling2D)   (None, 16, 16, 64)        0
block2_conv1 (Conv2D)        (None, 16, 16, 128)       73856
block2_conv2 (Conv2D)        (None, 16, 16, 128)       147584
block2_pool (MaxPooling2D)   (None, 8, 8, 128)         0
block3_conv1 (Conv2D)        (None, 8, 8, 256)         295168
block3_conv2 (Conv2D)        (None, 8, 8, 256)         590080
block3_conv3 (Conv2D)        (None, 8, 8, 256)         590080
block3_pool (MaxPooling2D)   (None, 4, 4, 256)         0
block4_conv1 (Conv2D)        (None, 4, 4, 512)         1180160
block4_conv2 (Conv2D)        (None, 4, 4, 512)         2359808
block4_conv3 (Conv2D)        (None, 4, 4, 512)         2359808
block4_pool (MaxPooling2D)   (None, 2, 2, 512)         0
block5_conv1 (Conv2D)        (None, 2, 2, 512)         2359808
block5_conv2 (Conv2D)        (None, 2, 2, 512)         2359808
block5_conv3 (Conv2D)        (None, 2, 2, 512)         2359808
block5_pool (MaxPooling2D)   (None, 1, 1, 512)         0
flatten (Flatten)            (None, 512)               0
dense (Dense)                (None, 100)               51300
dense_1 (Dense)              (None, 2)                 202
=================================================================
Total params: 14,766,190
Trainable params: 51,502
Non-trainable params: 14,714,688
No dropout used

1. Train 20 epochs using batch size 128 at learning rate of 0.01. Best model is vgg16_20200107_intermediate_003_accuracy_trainAcc_89.96_testAcc_90.06.h5.
2. Train 20 epochs using batch size 128 at learning rate of 0.0001. Best model is vgg16_20200107_intermediate_003_intermediate_020_accuracy_trainAcc_99.64_testAcc_99.56.h5.
…
